PyTorch/SelfLearning/EfficientCapsNet/checkpoints/EfficientCapsNetDeploy.pth (torch, 660626 bytes, 28 tensors)

conv1.weight f4 [32, 1, 5, 5]
000000 a2 34 26 3e a8 e8 00 3e eb aa ab be 4b 28 41 be
       0.16231015 0.12588751 -0.33528838 -0.18863027
000010 dc 49 a0 be a0 3a ec bd ec c4 2f be dc f5 ba be
       -0.3130635 -0.11534619 -0.17164963 -0.365157
000020 a7 09 7e be fd 62 2c 3d e1 d4 cf be 4c e6 45 be
       -0.2480837 0.04208659 -0.405921 -0.19326133
000030 87 35 b0 3e a9 55 0e 3f fe 7a b7 3e c2 09 2c be
       0.34415838 0.5559946 0.35836023 -0.16800597
000040 da e5 db 3c be a6 16 3f 9a 2c 01 be 12 31 71 be
       0.026843 0.5884818 -0.1261467 -0.23553875
000050 9a e9 ef bd 14 e0 95 3e ab bd 32 be 7f 9a a8 3e
       -0.11714478 0.2927252 -0.17455165 0.3293037
000060 6a 50 1f bd 85 65 84 bd 52 5b 9d 3d d1 e8 15 3e
       -0.03889505 -0.06464676 0.076834336 0.14639594
000070 e9 65 85 be 35 6d be bd 75 a0 3d be 3a 1c 79 3e
       -0.26054314 -0.09298173 -0.18518241 0.24327174
000080 a2 5a 09 be 9d db ba 3e b2 bb 08 bf 54 39 89 3e
       -0.1341348 0.36495677 -0.534114 0.2680155
000090 0d ce 71 be f8 23 dd bd 19 e4 81 3e e8 c0 a8 3c
       -0.23613758 -0.10797876 0.25369337 0.020599797
0000a0 75 59 fa bb 0d 74 ba be a7 05 94 be 04 c1 eb 3e
       -0.0076400586 -0.36416665 -0.28910562 0.46045697
0000b0 3e 15 34 be 35 87 18 be a4 01 be 3e 93 b3 56 3e
       -0.17586228 -0.14895327 0.37110627 0.2096694
0000c0 6a dc 57 bf f7 53 e1 3e 8c af e6 3d 2d 74 d4 3e
       -0.843207 0.44009373 0.11263952 0.41494885
0000d0 58 46 00 bf 84 17 22 3f c2 19 0b be 38 07 5e 3e
       -0.50107336 0.6331713 -0.13584045 0.21682441
0000e0 fc 9c 6e be 85 14 b9 be f5 db 84 3c f9 f1 78 3e
       -0.23302072 -0.36148468 0.016218165 0.24311055
0000f0 f2 c9 ed be e1 23 93 be 06 bc 98 bd e1 ee ea be
       -0.46443135 -0.2873831 -0.074577376 -0.45885375
000100 69 22 50 3e 88 6f d6 3d 68 20 59 be ca 92 c5 be
       0.20325626 0.10470492 -0.21203768 -0.38588554
000110 9c 20 9b 3e f0 56 a5 3d f7 de 94 3e 1e b6 f7 3e
       0.30298316 0.08073223 0.2907636 0.48381132
000120 f8 3e d8 3c 33 0d 37 bf 96 6d f2 be 41 6d 97 3d
       0.026397213 -0.71504515 -0.47349232 0.073938854
000130 59 a7 8f 3e d7 01 59 bd c4 11 41 3d ca 03 08 3e
       0.28057364 -0.05298027 0.047136083 0.13282695
000140 35 5a 90 3d 53 29 5e bd e9 51 11 3e 6a ae c1 bd
       0.070484556 -0.05423863 0.14191402 -0.09457095
000150 1f 0a 41 be 2b 96 9b 3e 93 b3 d3 bd c8 c1 5a 3e
       -0.18851517 0.30388007 -0.103369854 0.21362984
000160 72 c7 a5 3e ac d7 4a bd 44 a7 15 3e 9d 81 45 bc
       0.32378727 -0.049522087 0.14614588 -0.012054828
000170 f4 d5 d1 3d 49 80 bd 3d e9 92 eb be 6c 17 ce bd
       0.102458864 0.09252984 -0.4601052 -0.10063061
000180 8f 57 40 be d6 f9 2d bd 8f 71 80 3d 29 b9 b1 be
       -0.18783401 -0.04247459 0.062716596 -0.34711578
000190 c0 68 14 bd 9c ab 20 bb 64 65 17 3e f1 93 60 be
       -0.03623271 -0.002451635 0.14784771 -0.21931435
0001a0 00 fd 0b 3c a9 82 5e 3e f7 ba 2b 3e d3 fb b8 bd
       0.008544207 0.2172953 0.1677054 -0.09032407
0001b0 9f e8 fc bd 39 d1 12 3d 8b 31 42 3d e6 de 0f 3e
       -0.123490565 0.03584406 0.04741053 0.14049873
0001c0 85 b5 f7 3e 6a d5 93 3b d2 9c aa be 43 a1 06 be
       0.48380676 0.004511525 -0.3332277 -0.13147454
0001d0 ed c4 ae 3d 0a 1c b1 3e 5e 0b 1b 3f f3 c6 f6 3c
       0.08533654 0.34591705 0.6056422 0.030124163
0001e0 2e e6 1e be ab c7 db bd eb 6d 18 bf c2 cc b2 be
       -0.15517494 -0.10731443 -0.5954272 -0.34921843
0001f0 f0 a4 cf be d4 e4 27 be 7c 81 6f bd bd be 6b be
       -0.40555525 -0.16395885 -0.058473095 -0.2302198
000200 58 2d e9 3d e8 6c 6b 3e 11 a8 61 3e e1 9a f2 be
       0.11385602 0.22990763 0.22036768 -0.47383788
000210 2b 76 9e bd 47 4b 2e be ac 4b 6f bd c1 4f a3 be
       -0.077373825 -0.17020904 -0.058421776 -0.31896785
000220 87 79 56 3d 9d 92 7f 3e 43 b4 e2 3e e8 13 0e 3e
       0.05236199 0.24958272 0.44278154 0.13874781
000230 f3 c5 5d 3d c6 f5 96 be 32 01 a2 3e b2 46 f9 3e
       0.054143857 -0.29484385 0.31641537 0.4868675
000240 74 45 b9 be 13 eb 0d 3e 5d bc ca 3e fb 6f 22 be
       -0.361858 0.13859205 0.39596835 -0.1586303
000250 75 05 fd be d0 f2 75 3e 27 18 58 be 95 11 a2 bd
       -0.49418226 0.24018407 -0.21102963 -0.0791351
000260 08 f6 77 be 57 83 a3 be e9 64 85 3e e3 e1 19 3c
       -0.24214947 -0.31936142 0.2605355 0.0093922345
000270 40 c2 c7 3e 48 22 55 3e 7e 92 ae bd 5d f8 2b 3f
       0.39015388 0.20813859 -0.08524035 0.6717585
000280 f6 54 3f bd 3e 70 3f bd 24 b4 8d be ce 03 89 be
       -0.046711884 -0.046737902 -0.276765 -0.26760715
000290 d0 a3 a5 3e f0 b4 af 3e 6c ed ba be 26 78 e3 bd
       0.32351542 0.34317732 -0.36509264 -0.11106901
0002a0 2a 7c 71 be 20 5d 6c 3e ca 88 df bd da 5c 77 3d
       -0.23582521 0.230824 -0.10914762 0.060391285
0002b0 ad 07 c3 3d a3 6f c0 be cf 8f 67 bd 0c ae c3 3e
       0.095229484 -0.37585172 -0.05653363 0.38218725
0002c0 3c b5 90 be 4b 1d 24 bd 2f a6 04 be 65 4f b0 be
       -0.2826327 -0.040067 -0.12954019 -0.34435573
0002d0 0f d1 f9 bd 9d b2 e3 be 7a 3a bd bc 6d da c8 3e
       -0.12198078 -0.4447221 -0.023099173 0.39229146
0002e0 19 c8 81 3d 91 4c c6 3d bb 10 44 be e6 be b5 be
       0.06336994 0.09682573 -0.19147007 -0.35497206
0002f0 43 d7 c1 3e 82 47 e6 3e 48 25 d0 3e d6 d4 85 3e
       0.37859544 0.4497643 0.40653443 0.26138943
000300 77 93 97 3e 51 d9 da bd ac 69 dd 3e 1b 26 91 bd
       0.29604694 -0.10685981 0.43244684 -0.07087346
000310 b9 51 aa 3e 64 4f 91 3d 28 fb 82 be 2a 04 5a bd
       0.33265474 0.07095221 -0.25582242 -0.053226627
000320 ff b2 97 be 69 6b aa be 4b c0 d4 3e 47 fb 6c 3e
       -0.2962875 -0.33285072 0.41552958 0.2314273
000330 a6 ed 22 3f ea 65 4f be bb f6 86 3e a6 01 9a 3d
       0.6364387 -0.20253721 0.26360115 0.07519846
000340 6f a5 12 3d d9 9a 79 be 8f de 9f be 1b c8 41 3e
       0.0358023 -0.24375476 -0.31224486 0.1892399
000350 2f a5 9c 3e 8e 0e 70 be f5 ca 1b 3d 64 f4 4b bd
       0.30594775 -0.23443052 0.03803535 -0.049793616
000360 c9 9e 14 3d 74 7a 29 be 3e 5c a5 be 0b 1f 98 3c
       0.03628424 -0.16550618 -0.32296938 0.01856949
000370 fb ec 92 3c 15 37 75 3d 84 dc a7 3e 2f ec cf bd
       0.017935267 0.059866983 0.32785428 -0.1015247
000380 fc 06 b5 bd e9 b8 79 3e c3 3e 8e be d1 fa 31 3e
       -0.08839223 0.24386944 -0.27782258 0.17380835
000390 c8 a6 05 3f e4 0c e9 bd 4c 72 90 3e 1b 95 99 be
       0.52207613 -0.11379412 0.28212202 -0.2999657
0003a0 1a fd 43 3d 3b 81 c4 3d 1f 5f 98 3e cc 6f 35 be
       0.0478488 0.09594961 0.29760072 -0.17718428
0003b0 03 6e 6d 3e 3e d6 60 bd 77 0c ed 3d aa 22 24 bf
       0.23186497 -0.054891817 0.11574643 -0.64115393
0003c0 86 1f bf be f0 14 9c bd f1 21 d8 bd 2e 90 10 bf
       -0.37328738 -0.07621181 -0.10553349 -0.5647
0003d0 d1 00 81 be 43 77 98 3e c5 74 44 bd 82 b6 92 3d
       -0.25195935 0.2977849 -0.047962923 0.07163717
0003e0 50 c6 98 3e 4c 0b 0d 3f 31 dc 76 be c2 b4 7a 3c
       0.298388 0.5509536 -0.24107434 0.015301885
0003f0 14 de e1 bc 80 51 d3 3c 89 c5 b1 3e 42 04 d3 3d
       -0.027571715 0.025795698 0.3472102 0.103035465

conv1.bias f4 [32]
000000 e9 b2 f8 3d 21 f0 b9 bc 98 61 fe 3d 1b 77 43 bd
       0.121434994 -0.02269751 0.12420958 -0.04772101
000010 bf ae fd 3d f5 64 39 be b9 38 95 bd c5 1f 4c ba
       0.12386846 -0.18104918 -0.072862096 -0.00077867165
000020 f5 4a 19 be 6c ba cf 3d e5 ca 85 3c 33 f5 09 be
       -0.1497 0.10142979 0.0163321 -0.13472442
000030 cd 5e 35 be f0 48 bb 3c 5a a9 08 3e 57 d5 42 3e
       -0.17711945 0.022861928 0.13345852 0.19026695
000040 46 50 14 be 14 c1 42 b9 2b 85 25 3d 26 2f a0 3c
       -0.14483747 -0.00018573209 0.040410202 0.019553732
000050 8a 04 16 be d1 d3 07 bc 6c 8b 12 bd 9a 6d 30 3c
       -0.14650169 -0.008290247 -0.035777494 0.010768319
000060 79 7e 6f 3d 6d 97 fe bc a2 7a f0 3b a1 b7 36 be
       0.058470223 -0.031078065 0.0073388377 -0.17843486
000070 87 7f f3 3d 07 fc b0 3d 82 4b 17 3d 3e 7d 5c bc
       0.11889558 0.086418204 0.036937244 -0.013457594

batch_norm1.weight f4 [32]
000000 8a c3 8c 3f f6 18 75 3f 5b 45 76 3f 52 58 6b 3f
       1.0997174 0.9574121 0.9619958 0.9193164
000010 0a 1c 98 3f 30 62 5a 3f d1 5e 86 3f 15 b6 49 3f
       1.1883557 0.8530607 1.0497686 0.7879346
000020 92 7e 81 3f 8e c9 86 3f 9e 05 94 3f 0e fa 6a 3f
       1.0116751 1.053026 1.1564214 0.91787803
000030 83 d3 8f 3f 8d 18 85 3f f0 4c 61 3f 44 69 74 3f
       1.1236423 1.0398117 0.8800802 0.9547312
000040 12 dc 8b 3f d5 61 7b 3f d6 16 64 3f da 9b 81 3f
       1.0926535 0.98196155 0.89097345 1.0125687
000050 f1 cb 6c 3f 5d 56 81 3f 28 01 87 3f ab 3c 87 3f
       0.9249869 1.0104481 1.0547228 1.0565389
000060 1a 51 77 3f d6 60 8b 3f eb 64 88 3f d3 a8 71 3f
       0.96608126 1.0888927 1.0655798 0.9439823
000070 8f 61 90 3f b2 e4 81 3f e3 6e 7f 3f 88 e6 84 3f
       1.1279773 1.0147917 0.99778575 1.0382853

batch_norm1.bias f4 [32]
000000 1a e9 43 bc 58 2a 84 bc 6c 0a 5a be 7a e0 bc bd
       -0.011957431 -0.016133472 -0.21293038 -0.09222503
000010 e9 2f bf 3d 5a 66 21 bd df 58 45 3d 0d 58 78 be
       0.0933531 -0.03940425 0.048180457 -0.24252339
000020 f9 6c 69 bd 7e 46 f8 3d 4a 86 29 bd a2 07 0d be
       -0.05698869 0.1212282 -0.041387834 -0.13772443
000030 63 45 90 bd 8d 56 0d be 1f a4 6f bd 9c 4f 01 be
       -0.070444845 -0.13802548 -0.058506127 -0.12628025
000040 ce e8 9b 3c eb 36 8e bd 15 9d 07 be 84 c1 6f bd
       0.019031908 -0.069440685 -0.13243516 -0.05853416
000050 8c ae b4 bc 9c 04 8c 3d 05 36 b8 39 8a 63 91 bc
       -0.022055887 0.06836817 0.00035135463 -0.01774766
000060 7d e8 2d be b0 73 eb bb 26 10 06 3c b7 73 7b 3d
       -0.16983218 -0.007185422 0.008182561 0.06138965
000070 fd 65 06 3d 76 48 f6 bd 3c cc 00 be 64 d8 dc bd
       0.032812107 -0.120255396 -0.12577909 -0.10783461

batch_norm1.running_mean f4 [32]
000000 05 ac 49 be 70 b9 07 bf e2 92 63 bf e2 20 52 3e
       -0.19694526 -0.5301733 -0.88896 0.20520356
000010 4d a6 a7 bd e2 3a c7 3b 2e ca 8d be 6e c3 7a 3f
       -0.08186016 0.0060800174 -0.27693313 0.9795445
000020 a6 fd d5 3d 4c 44 9d 3e 97 d5 c7 3e 26 20 67 be
       0.1044877 0.3071617 0.39030144 -0.22570857
000030 f6 02 ac bd 45 cc d7 bf 6c d0 d5 3e 3e 9e 17 3f
       -0.08399002 -1.6859213 0.41760576 0.59225833
000040 46 ea 1a be 7e 01 3e 3d 9a 18 cb 3e ff 26 72 bd
       -0.1512843 0.04638814 0.39667207 -0.05911922
000050 94 09 b7 bd f2 40 98 be 1c 67 f4 bd 43 23 29 bd
       -0.08937374 -0.2973705 -0.11933729 -0.041293394
000060 e1 82 5e c0 d8 0c 38 be bd 9e e5 3d 10 db 36 bd
       -3.4767382 -0.1797365 0.112119175 -0.044642508
000070 d7 e2 ad 3c 87 e9 b6 3e c6 5f 60 3e ac 34 0d c0
       0.02122633 0.35725042 0.21911535 -2.2063398

batch_norm1.running_var f4 [32]
000000 3b 22 55 3d c3 07 36 3c 82 ce 85 3d 7a 38 dc 3c
       0.052034598 0.011110249 0.06533529 0.026882399
000010 7b 42 1f 3d dd 77 d2 3c 49 5e ca 3c e6 a1 7b 3d
       0.03888176 0.02569192 0.024703162 0.061433695
000020 82 f5 f4 3c ab bc fe 3c a3 7a 3d 3d 9b 89 6c 3c
       0.029902223 0.031095823 0.046259534 0.014437105
000030 cf ac 35 3d d2 56 b7 3d 87 79 d5 3c 66 73 ad 3d
       0.044354256 0.089521065 0.026058925 0.08469276
000040 75 95 47 3d 93 3d 5b 3d 3e 97 f3 3c b6 71 cc 3c
       0.048726518 0.05352552 0.029735204 0.024956565
000050 1b a0 a9 3c 1c ec 94 3d 2b ea c4 3c b7 a6 4c 3d
       0.020706227 0.07271597 0.024037441 0.04996368
000060 06 0a 9d 3e 1c c4 7e 3d ad 59 ed 3c 98 ed 31 3d
       0.3067171 0.062198743 0.028973425 0.043439478
000070 11 3a 48 3d ef b8 8a 3c 84 56 8f 3c e3 0d 03 3e
       0.0488835 0.016933886 0.017497309 0.12798266

conv2.weight f4 [64, 32, 3, 3]
000000 d6 5f 3b be e3 de c3 bd e8 30 75 be b3 eb 98 bc
       -0.18298277 -0.09563997 -0.23944438 -0.018667078
000010 61 05 ae bd f9 f0 7d be b5 17 81 3d 99 ce 38 bc
       -0.0849712 -0.24798955 0.0630335 -0.0112797255
000020 94 f6 38 be 06 a1 f7 3a ed b4 d6 bc 40 32 a0 bb
       -0.18062812 0.0018892593 -0.026209319 -0.0048888028
000030 07 31 ff 3d 31 32 1e 3d b3 1c 98 3d 21 26 0e 3e
       0.12460523 0.038622085 0.07427349 0.13881733
000040 fb f3 f6 3d 37 e3 95 3d e9 8c 6d 3e 44 71 ad 3c
       0.12058254 0.073187284 0.23198284 0.021172173
000050 d1 64 1b 3d 4a 6d 7d bc 6f 38 2c 3e 31 e6 44 3e
       0.037937943 -0.015467951 0.16818403 0.19228436
000060 ed 85 1e be 6d 36 30 be e9 58 36 3e ca 65 09 3e
       -0.15480776 -0.17208262 0.17807354 0.13417736
000070 58 16 39 bd 35 26 0c bd 21 41 1c 3e 50 1f 2a bd
       -0.045187324 -0.034216125 0.1525922 -0.04153377
000080 b6 52 75 bd 04 01 49 bc 5e 9b b4 bd ac c0 09 be
       -0.059893332 -0.012268309 -0.088186964 -0.13452405
000090 a4 26 80 bd ee 60 ba 3d 10 a4 0b bc 80 69 ac 3d
       -0.0625737 0.09100519 -0.008523002 0.0841856
0000a0 5c a8 4d be 09 9a 46 be a2 30 24 3e bf 91 e7 bd
       -0.20083755 -0.19394697 0.16034177 -0.11307096
0000b0 b8 2d f6 bd 0e 49 62 bd d6 06 44 bc c2 44 d5 bd
       -0.12020439 -0.05524545 -0.01196452 -0.10413505
0000c0 ac 65 8c 3d 4f c9 96 bd 9d f2 9e bd 38 aa ef bd
       0.0685533 -0.07362615 -0.077611186 -0.117023885
0000d0 45 a8 01 be 36 88 bb bd 9a 16 53 be 83 f1 b8 bd
       -0.12661846 -0.091568395 -0.2061409 -0.0903044
0000e0 fa 52 c9 3d 68 4b 7d bd 41 2e 9c 3d 6b ca b7 3d
       0.0983028 -0.06183949 0.0762601 0.08974155
0000f0 6d 68 cc 3d 97 49 10 bd a7 44 5a 3e f6 d5 96 3d
       0.09980855 -0.03522643 0.21315251 0.073650286
000100 8b 6f 3a 3b 16 3e 15 3d d0 56 56 3d 7f 96 73 3d
       0.0028447832 0.036436163 0.052328885 0.059469696
000110 53 94 b5 bd 53 9c 23 3e 82 3c 24 3b be 69 e6 bd
       -0.08866181 0.15977602 0.002506048 -0.112506375
000120 ea 8a 80 be 7f d7 5a be c8 0e 9a bd fc 78 ed bd
       -0.25105983 -0.21371268 -0.075223505 -0.115953416
000130 a0 31 4f be 98 1f c4 bc 67 37 49 be 99 67 ea 3c
       -0.20233774 -0.023940846 -0.1965004 0.028613852
000140 a5 1e 25 3d 74 d4 ee 3c 9e c9 d8 3d 7b 5d a1 3d
       0.040312428 0.02915404 0.105853304 0.07879158
000150 cb 3f 59 3e 07 f6 b1 3d 98 40 59 3d 84 6c 3e 3e
       0.21215741 0.08689504 0.053040117 0.18596083
000160 0a ae 09 3c 57 be 00 be 28 7e 93 3d 20 c4 c6 3d
       0.008403311 -0.12572609 0.07201797 0.097053766
000170 9b 7b d4 b8 8f f1 28 be 79 4c 81 bd 3d 64 86 bd
       -0.00010131971 -0.16498397 -0.06313414 -0.06562088
000180 66 80 e4 bd ac c3 f6 bb d2 fb 36 bd d2 2b 07 be
       -0.111573026 -0.00753065 -0.04467375 -0.1320031
000190 45 36 32 3e c3 63 38 3d 1c 42 02 be 6a 5e 91 3d
       0.17403515 0.045017015 -0.12720531 0.07098086
0001a0 04 08 19 3b 1c a7 73 3d 3c c2 0d 3e e9 2f 99 bc
       0.0023350725 0.05948554 0.13843626 -0.018699603
0001b0 57 ca aa 3d db ba 30 3d 52 6e 47 3e e9 b5 83 3d
       0.083393745 0.04314695 0.19475678 0.06431181
0001c0 9d ba 66 3c 65 60 5c 3e 92 b6 5c bc ab a7 fc 3c
       0.014082578 0.21521147 -0.0134712625 0.030841669
0001d0 7c 03 9f 3e 65 e4 85 bd be 18 9a 3c fe 5a db bc
       0.31057346 -0.065377034 0.018810626 -0.026776787
0001e0 04 89 21 be d4 b7 01 3d b3 3d fe 3d e9 a9 9e bd
       -0.15774924 0.031669453 0.12414112 -0.077472515
0001f0 ff b2 7f bd 35 15 65 bd 97 e5 03 3e 41 5c 88 3d
       -0.062426563 -0.055928428 0.1288055 0.06658221
000200 81 8e b9 3d 7a 74 b4 3d d0 63 1f 3d 03 2e 1e 3c
       0.090603836 0.08811279 0.038913548 0.009654525
000210 b7 9c a1 bd f2 1e c6 3d 53 13 99 38 8b 35 81 be
       -0.07891219 0.09673871 7.299208e-05 -0.25236163
000220 83 f3 33 be 74 4d dc bd 00 45 c6 bd b3 c0 1e be
       -0.17573361 -0.107569605 -0.096811295 -0.15503196
000230 ba 9d a3 3d 17 d0 2e 3d a0 f8 1f be 29 6b 87 bd
       0.07989068 0.04267892 -0.15622187 -0.06612236
000240 94 50 a8 bd 5f a4 e2 3d b5 1d c9 bd 55 ad fb 3c
       -0.08218494 0.110665075 -0.09820119 0.0307223
000250 47 7c 02 be 1e d2 54 bc 39 45 26 3d bd 8b a4 bd
       -0.1274272 -0.012989549 0.04059336 -0.080344655
000260 3f 66 11 3e bf 45 be bb 09 f5 ca bd e6 7e ba bd
       0.1419916 -0.005806654 -0.09910018 -0.09106235
000270 f4 9c 20 3c 72 f5 87 bc 30 c7 23 3d 9f 2f 48 bd
       0.009803046 -0.01659653 0.039984882 -0.04887354
000280 cf 90 d8 bd b4 51 14 3e 50 bc c8 3d 76 6a e4 bc
       -0.10574495 0.14484292 0.09801543 -0.027882796
000290 fe ef 45 3c 1f 33 9c bd 9c e7 ef 3d b7 82 9e 3d
       0.012081144 -0.07626938 0.11714098 0.07739776
0002a0 e4 82 75 3d 79 3a 6e bd 26 ec 37 3c 47 32 20 bd
       0.05993928 -0.058161233 0.011225736 -0.03911045
0002b0 52 9b ca 3d 6a 22 83 bd 23 b4 9e 3d b5 bc 42 be
       0.09892906 -0.06403048 0.07749202 -0.19017299
0002c0 dc c3 c4 bb 75 e9 ef 3d 5b 89 0d be 98 bd 32 bd
       -0.0060047936 0.1171445 -0.13821928 -0.043637842
0002d0 8d 6f dc bc f3 74 2f 3e a9 eb b4 3d 86 2d 8e bd
       -0.02690866 0.17134456 0.08834011 -0.06942277
0002e0 03 c7 02 3e 7b 7b a6 bc e6 ab f6 3d b1 bb 20 3e
       0.1277123 -0.020322552 0.12044506 0.15696599
0002f0 75 e8 0f 3e 7f bb f2 bd 69 ae 31 bd 30 41 b2 bd
       0.14053519 -0.11852168 -0.04337922 -0.0870384
000300 2c cf 31 3d 2e b7 aa bc e9 20 91 3d 4e 1c 51 3d
       0.043410465 -0.0208393 0.07086355 0.051052384
000310 45 6c 18 bd 08 52 26 bd 38 e7 75 3d b9 32 bf bd
       -0.03721263 -0.040605575 0.06003496 -0.093358465
000320 01 73 fd bd 57 78 a2 3d b8 f0 16 3b 2a bb be bc
       -0.12375451 0.07933109 0.0023031663 -0.023282606
000330 30 dc 23 3e 75 b4 13 3e a7 d0 e2 bd 8c 9c 3c 3e
       0.16001964 0.14424308 -0.110749535 0.18419093
000340 93 ef 53 bd 88 0f 63 3e 62 97 9f bc ed 59 99 bc
       -0.051742148 0.22173893 -0.019481365 -0.018719638
000350 de 63 16 3b 47 51 39 bc 8c 13 05 3e f2 34 a0 3d
       0.002294771 -0.011310882 0.12995738 0.078225985
000360 2b ee 56 bd 1c cf 5f 3d 8d 2c 77 be 8f 95 fd bd
       -0.05247323 0.054640874 -0.24138089 -0.12382042
000370 2c 9b eb bc fa 5b 2d be 95 b5 66 3d 38 17 0d be
       -0.028760515 -0.16929618 0.056325514 -0.13778389
000380 88 c2 77 3d e7 45 b5 3d 79 cf 4f be a2 e6 30 be
       0.060488254 0.088512234 -0.20293988 -0.1727548
000390 f2 90 01 be d3 ca ad bc 5f f4 b1 3c 37 90 3c 3d
       -0.12652948 -0.021214878 0.02172297 0.04603597
0003a0 e4 53 d0 bd 9b 79 29 bd a7 0d 8a 3c 58 0b 1f be
       -0.10172251 -0.041375738 0.016852213 -0.15531671
0003b0 ee 52 02 bd f2 45 c9 bd 1d c5 40 bd 96 27 ce bd
       -0.03181737 -0.09827794 -0.047062982 -0.10066144
0003c0 d3 ae 6c be 9c ca ac be 5f 60 c2 bd 0e 40 95 bd
       -0.23113565 -0.3374833 -0.094910376 -0.07287608
0003d0 27 e1 2e be f4 64 55 be 71 b8 3c 3d 74 c8 c5 bc
       -0.17078076 -0.20839292 0.046074335 -0.024143435
0003e0 d6 28 0d 3c 47 f1 7c 3d 0b ad bd bd 99 c7 71 3d
       0.008615693 0.061753538 -0.09261521 0.05902824
0003f0 1c 78 08 3d f2 91 c6 bc 7a ad e0 3d 68 63 6e bd
       0.03331767 -0.024239514 0.10970588 -0.05820027

conv2.bias f4 [64]
000000 cf 69 fb bc fa a1 40 ba 78 7a 54 bd 15 fd 3a bd
       -0.030690102 -0.0007348355 -0.051874608 -0.045651514
000010 69 6e 5c bd d7 34 08 bd 0a a3 06 bd a5 de 04 3d
       -0.053816233 -0.033253517 -0.03287033 0.032438893
000020 9f 42 08 bd ce 18 96 3b be 35 43 3d 1f a5 e2 bc
       -0.03326666 0.0045805937 0.047658674 -0.027666626
000030 f5 c5 eb bc 81 62 cf bc d4 95 50 bd 55 a0 c7 3b
       -0.028780917 -0.025315525 -0.050924137 0.006092111
000040 29 d8 20 3d 94 80 58 3d 9d e2 21 bd db f3 ce 3b
       0.039268646 0.052856997 -0.039522756 0.006315691
000050 62 79 1e 3d db 04 40 bc 2b 97 48 bc 2a 87 6c 3c
       0.03868998 -0.011719908 -0.0122430725 0.0144365225
000060 8e db 55 bd e2 b0 cc ba 86 df 98 3c 74 92 e2 bc
       -0.052211337 -0.001561668 0.018661272 -0.027657725
000070 ca 7c 49 bd ed d7 76 3a 4d e9 9b bc a4 47 ec bb
       -0.049191274 0.0009416331 -0.019032145 -0.0072106887
000080 90 eb d3 bc 9f 86 70 3d c8 61 08 bd e0 9e 4f 3d
       -0.02586916 0.058722135 -0.033296376 0.050688624
000090 61 49 c1 3c 6f 2b bf bc 20 e9 96 3c d5 7b f4 bc
       0.02359456 -0.02333614 0.01842171 -0.029844204
0000a0 3a 0e 0b bc 45 77 3d 3d 4d 97 54 3d 11 fa 2a bd
       -0.008487279 0.046256322 0.051902104 -0.04174239
0000b0 c1 9f 30 bd b9 ab 4d bd 83 ca f3 bc 54 78 68 bd
       -0.043121103 -0.050212596 -0.029759651 -0.05675538
0000c0 75 45 03 3d 9d 47 ac bc ff 51 11 bc 86 46 4a bd
       0.03204866 -0.021030242 -0.008869647 -0.049383663
0000d0 b2 e1 01 bd 86 09 36 3c 8c b1 87 bc 29 17 31 b9
       -0.03170938 0.011110669 -0.016564153 -0.00016888663
0000e0 fc 35 00 bd f9 14 33 3c f5 0c d8 3c 3d 61 24 bd
       -0.031301484 0.010930293 0.026373366 -0.040131796
0000f0 a8 c1 49 3d 33 1c 85 bc 90 bd 03 bd 7d e0 6f 3d
       0.04925695 -0.016248798 -0.032163203 0.058563698

batch_norm2.weight f4 [64]
000000 ef a8 7d 3f 5d 54 63 3f 2c bf 84 3f 9b a9 7b 3f
       0.990859 0.88800603 1.0370841 0.9830567
000010 50 73 7e 3f e3 42 7c 3f 59 db 7a 3f ce d8 89 3f
       0.993947 0.9853956 0.9799095 1.0769289
000020 be e2 68 3f 71 f6 81 3f 46 bd 78 3f 50 6c 8a 3f
       0.9097098 1.0153333 0.9716381 1.0814304
000030 76 0a 71 3f 59 01 73 3f 63 07 69 3f 03 a8 6d 3f
       0.9415659 0.9492393 0.91026896 0.9283449
000040 eb 45 89 3f d2 f9 7f 3f 86 29 62 3f 2d ed 78 3f
       1.0724462 0.9999057 0.8834461 0.972369
000050 9c 56 6c 3f c9 f3 86 3f 3b 23 79 3f 2d ca 7e 3f
       0.92319655 1.0543147 0.9731938 0.99527246
000060 90 4b 80 3f 3b 60 8b 3f cd e0 71 3f a6 80 6c 3f
       1.002306 1.0888742 0.94483644 0.923838
000070 59 ed 7c 3f e4 1f 86 3f dd 22 7b 3f d5 86 80 3f
       0.98799664 1.0478482 0.9810007 1.0041147
000080 fe bb 5f 3f c5 e1 86 3f 08 54 84 3f 6c 72 69 3f
       0.8739623 1.0537649 1.0338144 0.9119022
000090 8d ef 76 3f e4 cc 8d 3f c6 7c 69 3f ee e5 6c 3f
       0.96459275 1.1078153 0.91206014 0.92538345
0000a0 1b 3f 82 3f cf d5 6c 3f 62 91 7e 3f ef c2 82 3f
       1.0175508 0.92513746 0.99440587 1.0215739
0000b0 aa 2f 6d 3f e9 4d 8c 3f bf 12 73 3f 55 1f 87 3f
       0.92650855 1.0961276 0.9495048 1.0556437
0000c0 6f 58 88 3f 64 ef 90 3f 57 62 91 3f f5 6e 86 3f
       1.0651988 1.1323056 1.1358136 1.0502611
0000d0 64 c4 7d 3f a0 27 76 3f ce 38 8b 3f 35 e6 88 3f
       0.99127793 0.9615421 1.087671 1.0695254
0000e0 c1 8d 81 3f a9 1e 81 3f e6 b5 73 3f 76 32 82 3f
       1.0121385 1.0087482 0.9519943 1.017165
0000f0 f6 ea 80 3f 66 4b 8c 3f 8a 6e 7b 3f b2 5c 78 3f
       1.0071704 1.096051 0.98215544 0.9701644

batch_norm2.bias f4 [64]
000000 3a 06 2a be 2d 53 55 be b7 8f 92 bd 7c 88 2e be
       -0.16603938 -0.2083251 -0.07156318 -0.17044252
000010 57 ef 73 be 4c d8 51 bd 3a 9c ce bd 59 99 12 be
       -0.2382177 -0.051231667 -0.100883916 -0.1431631
000020 84 98 2f be ce d0 97 bd fd 8a d9 bd dd d1 19 be
       -0.17148024 -0.07412873 -0.10622213 -0.15021463
000030 9b 30 ee bd 6b e8 3a be d5 ec ca bd dc 82 d3 bd
       -0.116303645 -0.18252723 -0.099084534 -0.10327694
000040 f3 8e 16 be 99 87 31 be 95 6b 43 be 61 c0 16 be
       -0.14702968 -0.17336883 -0.19084008 -0.14721824
000050 f2 eb ea bd 7f 3e ae bd 5a 7f 7f be 0f aa 2a be
       -0.11470784 -0.08508014 -0.24950925 -0.16666435
000060 d0 f6 fc bd 4b 32 45 be 0a 92 f2 bd b1 37 1a be
       -0.12351763 -0.19257466 -0.11844261 -0.15060307
000070 fc 50 bc bd 2f 08 89 bd a0 9e f9 bd f7 5a f4 bd
       -0.09195134 -0.06691014 -0.121884584 -0.11931413
000080 b3 ac 57 be f3 86 1b be b1 cf ad bd 14 62 34 be
       -0.21061973 -0.15188198 -0.084868796 -0.17615539
000090 1e 69 16 be 1b b4 49 be c6 93 4d be 76 dc 5a be
       -0.14688537 -0.19697611 -0.20075902 -0.21373162
0000a0 0d e8 a4 3c 37 7b 27 be 4c 6f 12 be f2 eb 78 bd
       0.020130182 -0.16355596 -0.14300269 -0.06077189
0000b0 b0 b3 6f be 5e 2b eb bd f4 6f 4c be 1b 20 26 bd
       -0.23408389 -0.11482881 -0.19964582 -0.040557962
0000c0 dc 29 b3 bd fc c2 14 bd 52 c7 80 3c da 46 f1 bd
       -0.087482184 -0.036318764 0.015720043 -0.11781092
0000d0 5f cd 2a bd 5e 83 84 be a6 d3 91 bd 70 1a c7 bd
       -0.041699763 -0.25881475 -0.07120447 -0.097218394
0000e0 09 a2 62 be a2 4f b3 bd 0e bc 19 be 20 97 8d bd
       -0.22132124 -0.08755423 -0.15013143 -0.069135904
0000f0 9e fd 52 be 99 cb 94 bc fc 1a 20 be 1e 41 3c be
       -0.2060456 -0.01816349 -0.15635294 -0.18384215

batch_norm2.running_mean f4 [64]
000000 93 ec 51 bf 0b 7e d0 bf 46 78 02 3f 8e b0 5a bf
       -0.8200161 -1.6288465 0.5096477 -0.8542565
000010 3f 92 49 bf 8c 1a 1d bf d0 0d 64 bf 34 ca 5c bf
       -0.7873878 -0.6136863 -0.89083576 -0.8624604
000020 43 db d0 be e5 56 19 bf b1 4d 6b bf d4 52 0c be
       -0.40792283 -0.59898216 -0.9191542 -0.13703471
000030 3c 7f 41 3f fa 36 c7 bf 86 a3 5e bf c0 9a fb 3f
       0.7558477 -1.5563653 -0.86968267 1.9656601
000040 b7 cf 55 bf 98 4e bb bf 1b 60 8a bf 65 4e 0d 40
       -0.8352007 -1.463336 -1.0810579 2.2079098
000050 7c 76 c6 3e 79 34 8f bf 7f 27 dc bf f0 e0 7b bf
       0.3876227 -1.1187888 -1.7199553 -0.983901
000060 d6 05 3b bf ed 2f 23 bf 1f 53 37 bf ce c5 98 be
       -0.7305578 -0.63745004 -0.7161121 -0.29838413
000070 61 ee 16 3a 05 a5 61 bf 29 61 03 bf 98 10 53 bf
       0.0005757567 -0.88142425 -0.5132013 -0.82447195
000080 be 10 6b bf 2b 22 ce be bd 6a 43 bf 0c a9 f7 be
       -0.9182242 -0.40260443 -0.76334745 -0.4837116
000090 56 37 c3 bf dd b8 ca 3e c6 90 57 3f 19 6e f9 be
       -1.5251262 0.39594164 0.8420528 -0.4871681
0000a0 06 8a 94 bf a3 20 0f 3f 8a 88 35 40 64 ff 2b bf
       -1.1604621 0.55909175 2.8364587 -0.6718657
0000b0 4c 51 bb 3f 69 b3 2a bf 9c 86 49 bf 8f 5b d1 bf
       1.4634185 -0.6668001 -0.7872102 -1.6356066
0000c0 6e c0 b2 bf 30 2e 2c bf 70 52 19 bf ff 90 99 bf
       -1.3964975 -0.67257977 -0.59891415 -1.1997374
0000d0 30 57 13 bf ba 2e bb be e6 cd 01 be 25 79 9d bf
       -0.5755491 -0.36559087 -0.126762 -1.2302595
0000e0 56 e2 1a 3c 2c bf 17 3e c4 b7 a4 bf 2b 12 22 bf
       0.009453377 0.1481902 -1.2868581 -0.6330897
0000f0 69 51 4f bf b3 3c 7b 3c 4b 1a b6 be c0 6e 92 be
       -0.809836 0.015334296 -0.35566935 -0.2860012

batch_norm2.running_var f4 [64]
000000 0b cc 2f 40 90 16 d6 40 53 59 b3 40 4e bf bc 3f
       2.7468288 6.690254 5.604654 1.4745882
000010 1b 76 f2 3f 44 e5 cd 3f e1 7c 45 40 2d 20 27 40
       1.8942293 1.6085591 3.085747 2.6113389
000020 58 2a 2e 40 35 33 30 40 42 95 1c 40 e3 45 9e 40
       2.7213345 2.7531254 2.44661 4.946031
000030 67 f2 5d 40 d6 d2 7c 40 de 2d 12 40 51 ec d9 40
       3.46792 3.9503684 2.2840495 6.810097
000040 26 74 dc 3f c7 2b 28 40 18 e8 6b 40 cf ac ba 40
       1.7222946 2.627672 3.6860409 5.833595
000050 5a 4b 99 40 e5 a7 26 40 11 e2 58 40 57 9c 1b 40
       4.790448 2.6039975 3.388798 2.4314172
000060 c2 4a 8b 40 ca 4f 12 40 34 a3 46 40 f6 cb 17 40
       4.3528757 2.28612 3.1037111 2.3718238
000070 1f 5c 1f 40 08 38 7b 40 ae 37 ec 3f c3 b0 60 40
       2.4899976 3.9252949 1.8454492 3.5107887
000080 69 ae 96 3f 21 e5 de 3f 0d e9 a9 40 b3 d3 09 40
       1.1771976 1.7413675 5.3096986 2.153546
000090 3a 2c 29 40 a7 d9 20 40 05 ba 6b 40 6e 7e 38 40
       2.6433244 2.5132844 3.6832287 2.8827167
0000a0 44 e9 72 40 90 ee e6 3f f2 9c ce 40 2e cd 45 40
       3.7954874 1.8041553 6.4566584 3.0906482
0000b0 f0 85 40 40 c6 3d d5 3f ac e9 5c 40 6b dc 45 40
       3.008175 1.6659477 3.4517622 3.0915782
0000c0 e0 33 24 40 37 1e 00 40 e8 e9 08 40 a4 9f d4 3f
       2.5656662 2.0018442 2.1392765 1.6611218
0000d0 c3 74 ec 3f f4 3d a9 3f 71 fb 07 40 82 77 6e 40
       1.8473133 1.3222032 2.1247218 3.7260442
0000e0 43 a6 25 40 76 ec 92 40 51 a2 9f 40 1e 8b 2d 40
       2.5882728 4.591365 4.988564 2.711616
0000f0 1d d1 d5 3f ab d0 2b 40 c5 55 54 40 74 3b e8 3f
       1.6704441 2.684611 3.317735 1.8143144

conv3.weight f4 [64, 64, 3, 3]
000000 00 e7 9e 3d 29 19 0c 3d 64 df 98 3d 7a 6e 86 3d
       0.077589035 0.034203682 0.074644834 0.065640405
000010 a5 3d 8e bd 83 d9 9b bd cb f7 ab 3a 4c c9 b2 3c
       -0.069453515 -0.076098464 0.0013120113 0.021824501
000020 84 68 af 3d 8d 78 24 bc 22 c6 2d bc 6f 58 2c bd
       0.08564857 -0.010038507 -0.010606321 -0.042076524
000030 5a 5f 65 bc 0d 5b a8 3d cd 44 07 bc 97 c9 47 bd
       -0.013999784 0.082204916 -0.0082561495 -0.048776235
000040 1a 6a 19 bd b1 50 29 bd fe e0 91 bd 8c 33 6d bd
       -0.037454702 -0.04133672 -0.07122992 -0.057910487
000050 c5 9d b2 3c 33 b0 89 bc 27 c9 b7 bd 4b 28 be bd
       0.021803746 -0.016807651 -0.08973914 -0.09285029
000060 d8 a1 28 bc 05 5e 25 3d c2 bc a1 3d 6c 00 93 3c
       -0.010292493 0.040372867 0.07897331 0.017944537
000070 e2 6e 52 bd 4e 2c a7 3c ba 2d ab 3d 8a a2 4d bd
       -0.051375277 0.020406868 0.08358331 -0.050203837
000080 8c 7a 0f bc fb a7 19 bd d4 08 10 be 09 7c a4 bd
       -0.008757245 -0.037513714 -0.14065868 -0.0803147
000090 be 2b 69 bb 59 ae 0d be 9f 27 63 bd 12 c5 61 bc
       -0.003557905 -0.1383604 -0.055457707 -0.013779895
0000a0 60 fb bd bd ab c8 d3 bd 14 e6 af 3c 5d 97 29 bd
       -0.092764616 -0.10341009 0.021472014 -0.041404117
0000b0 be fd 8c bd 0b 4e e9 3c 19 5f 5d 3c da f4 cb bd
       -0.06884335 0.028479597 0.013511443 -0.09958811
0000c0 35 b4 37 3c 7e 3c b8 3b 02 49 03 bd 04 55 04 3d
       0.011212398 0.0056224456 -0.032052048 0.03230764
0000d0 57 0e 23 3e 5e e1 b2 bd e9 87 38 3c ca a7 94 bd
       0.15923439 -0.08734392 0.011262872 -0.07258566
0000e0 d5 42 f1 bd ab d4 b6 bc 17 8f 31 bd 6a 05 09 bd
       -0.11780325 -0.022318205 -0.04334935 -0.03345243
0000f0 ea e4 6e bc 46 14 49 bb 80 5b 85 bd 90 04 1f bd
       -0.014580945 -0.003068225 -0.06511593 -0.03882271
000100 59 3f a4 3c 35 2a 92 3d 87 03 db bc 46 21 14 bb
       0.020049738 0.071369566 -0.02673508 -0.002260284
000110 24 59 ee 3c 75 c3 8c bc 31 66 8b 3b c2 15 be 3d
       0.02909524 -0.017183045 0.0042541255 0.09281494
000120 fc 14 90 bd 32 f1 d6 bb 6d 0c b5 bc 28 0b 3d 3d
       -0.070352525 -0.0065595144 -0.022100652 0.046153218
000130 0d e9 82 3d ce b9 cf bc 50 64 b6 3d 96 6d 6c bb
       0.06392107 -0.025357153 0.08905852 -0.003607606
000140 76 ec f1 bd 16 27 02 be e7 b3 2d be f5 24 21 be
       -0.118126795 -0.12710223 -0.16963159 -0.15736754
000150 b7 c1 0a 3d fb 17 9b bd 03 eb b2 bc 63 82 b1 3d
       0.033876147 -0.07572933 -0.021840578 0.086674474
000160 c2 70 95 3d c4 f1 dd 3c ce d0 d6 3c c3 11 14 bc
       0.072968975 0.027092822 0.026222613 -0.009037438
000170 5c 6f 42 bd e2 68 a1 3d 06 03 dd 3c 02 f8 38 bc
       -0.04746948 0.07881333 0.02697898 -0.011289598
000180 00 ab 2f 3d db 8d da 3d 2c a3 ab bc 0a 92 7b 3c
       0.042887688 0.10671588 -0.02095183 0.015354643
000190 1b f1 85 3d 48 99 a2 bd 0c 56 be bd ff 4f b4 bd
       0.06540128 -0.07939392 -0.09293756 -0.088043205
0001a0 e9 cb 4d bc 05 f3 83 bd 1b db ef bd a7 03 63 be
       -0.012560823 -0.06442837 -0.11711713 -0.22169362
0001b0 8e 48 37 bd 58 1e da 3c 8c 3c ba 3d bf 6c 50 bd
       -0.044746928 0.026625797 0.0909358 -0.05088496
0001c0 89 5b 90 3c 3e 94 94 3d 8d b5 b9 3c ba b7 e8 bc
       0.017621772 0.072548375 0.022669578 -0.02840792
0001d0 e3 a5 88 3c b8 f8 f2 3d 85 8a 2c 3d 11 c2 fa bc
       0.016680663 0.118638456 0.04212429 -0.030610116
0001e0 ab 4e 9c 3d 04 a8 85 3c eb e1 a6 3d ee 94 77 bd
       0.07632192 0.016315468 0.08148559 -0.060444765
0001f0 ba 40 0d 3d 2b fa 6d bd fd 88 06 bd 29 d0 85 bd
       0.034485556 -0.058099907 -0.032845486 -0.06533844
000200 7c c1 26 be c5 5c d0 bd c0 90 bc bd 6a 12 46 be
       -0.16284746 -0.101739444 -0.09207296 -0.19342962
000210 60 4f 4e bd d9 1c 80 bd ab 5c 07 3c 2f 24 d7 bc
       -0.050368667 -0.06255502 0.00826184 -0.02626237
000220 76 d1 c8 bd fa 18 22 be 41 f3 31 be 9a 9e e8 bc
       -0.098055765 -0.1582984 -0.1737795 -0.02839594
000230 40 17 44 be bc 6a ea bb 5a f3 f3 bb ac 0e 44 be
       -0.19149494 -0.007153837 -0.0074447813 -0.19146222
000240 dc f2 f4 bd 61 71 72 bd bb 87 fa bd e5 9c 2d be
       -0.11960384 -0.059190158 -0.1223292 -0.16954382
000250 68 99 d0 bd 69 22 23 3c 3e d5 57 be 72 7c e3 bd
       -0.1018551 0.0099569345 -0.21077439 -0.111077204
000260 9b df 63 3d 80 46 85 bd 1d 34 9c bd 76 4b ea bc
       0.05563317 -0.065075874 -0.07627127 -0.028600436
000270 1f b5 69 bd 41 4c e4 bd 58 f8 15 3d 3a 07 3b bd
       -0.057057496 -0.11147357 0.036613792 -0.04566119
000280 d5 e3 88 bc 56 4b 80 bd 65 6e d4 3d f2 70 20 3e
       -0.016710201 -0.06264369 0.103726186 0.15668085
000290 de 73 e3 3d 35 6e 78 3d cc 83 10 bd cb ec f6 3c
       0.11106084 0.060651977 -0.03528194 0.030142209
0002a0 37 db 74 3d 15 3b ee bd 75 75 27 3d d4 7a f0 bd
       0.059779372 -0.11632363 0.0408835 -0.117421776
0002b0 58 a2 71 bd 67 2f 30 be 57 94 0e be 04 e7 fb bd
       -0.058992714 -0.17205583 -0.13923775 -0.12299922
0002c0 57 38 c0 bd 52 b9 06 be 9d 7f 05 be cd cb 96 bb
       -0.09385746 -0.13156632 -0.13036962 -0.0046019317
0002d0 be fc 10 be 9d 4c 1c bd 89 cc 62 3d aa 10 62 be
       -0.14158913 -0.038159 0.05537084 -0.2207667
0002e0 1f a0 f7 bd 37 b6 ae 3c 1d 82 1a be cc ad eb bd
       -0.120910875 0.021327121 -0.15088697 -0.115077585
0002f0 2a 71 8a 3d 37 5f fd 3b f7 7d 24 bd 5c 27 6e bc
       0.067598656 0.0077322978 -0.040159192 -0.014535751
000300 b2 77 e1 3d 76 fe 69 3d 51 06 77 3d ef 2b 14 3e
       0.11009158 0.05712744 0.06030876 0.14469884
000310 5a 8a 1a 3e 80 96 11 3e 6d 70 88 bd 4a 44 93 bc
       0.1509184 0.14217567 -0.066620685 -0.017976899
000320 71 45 3d 3d 59 6d 87 bd 68 a7 48 3d 17 63 f1 3c
       0.046208803 -0.06612653 0.048987776 0.029466195
000330 a8 05 a2 bb d1 69 96 bc f7 ff bc 3c 61 fa 8e 3c
       -0.004944522 -0.018361004 0.023071272 0.017453374
000340 c4 33 2f be 5f 4c 53 be 7f be 17 bd b4 54 0f be
       -0.17109591 -0.20634602 -0.037046906 -0.13997155
000350 ee 4c 49 bd e7 20 fc 3c c2 94 e5 3c 18 1e 25 bc
       -0.04914563 0.030777408 0.028025035 -0.010077976
000360 9f 37 8a bd fe 8c 9c bd bd 17 51 bd 18 18 00 3e
       -0.0674889 -0.076440796 -0.05104803 0.12509191
000370 8b a0 dc 3c 3d ac ff 3c 1c 51 81 3d 9c f5 bc bc
       0.026932022 0.03121006 0.063142985 -0.023066334
000380 c2 5a f5 3c 9a 9a a0 bb 89 f5 63 bd 5f e1 ac bd
       0.029950503 -0.0049012424 -0.055654082 -0.084414236
000390 53 d4 d5 bd 57 ab 5a 3d c3 f3 70 3d 4e 6d 69 3d
       -0.10440888 0.05338606 0.05882622 0.056989007
0003a0 e3 16 54 3c 1b 73 fb 3b eb b9 80 3d 4b c3 18 ba
       0.01294491 0.0076736338 0.06285461 -0.0005827441
0003b0 c2 8f 5b 3d 1e 48 a4 3d 15 ed bc 3c 6e 52 55 3b
       0.053603895 0.08021568 0.023062268 0.0032550353
0003c0 16 81 d5 bd 8a c7 b5 bc dd 7d 02 3d b9 54 43 3d
       -0.10425012 -0.022189874 0.031858314 0.04768822
0003d0 4c 71 69 bd c3 b7 eb bc e4 2a 62 3c 68 b4 60 3d
       -0.056992814 -0.028774148 0.013804171 0.05485955
0003e0 1f f8 c2 bd 9f 30 07 3e 1a a7 87 3c d2 4a 88 3d
       -0.095199816 0.13202141 0.016559172 0.06654896
0003f0 8f 3a 27 bc e9 1f 61 bc 32 32 97 3d 9f 9e 07 be
       -0.010206833 -0.013740518 0.07382621 -0.13244103

conv3.bias f4 [64]
000000 3a 8d e6 3c b5 36 28 3d 05 fd 1d ba 40 b8 e6 3c
       0.028143514 0.041067798 -0.00060267776 0.02816403
000010 e9 e8 94 bc 04 60 a7 bc 30 d3 14 bd 85 10 07 3b
       -0.018177466 -0.020431526 -0.036334217 0.0020609212
000020 10 fc 1c bc 15 de 1b 3d c4 df 09 bb 42 70 a7 3c
       -0.009581581 0.03805359 -0.0021037916 0.02043927
000030 a4 22 d6 bb e6 b5 1e bd c6 4f 8a 3c 14 5d 80 3c
       -0.006534891 -0.03874769 0.016883742 0.015669383
000040 9d 34 1d 3d 4b 13 ba bc 16 1c fd bc 83 76 08 bd
       0.038380254 -0.022714278 -0.030897181 -0.033316147
000050 e2 33 b9 3b 22 80 f5 3c e3 50 87 3b fd 3d a8 3a
       0.005651937 0.029968325 0.0041295155 0.0012835857
000060 8b 7b ff 3c 61 6b 8e bc 35 ec aa 3c e8 db c2 bc
       0.03118684 -0.017385187 0.020864585 -0.0237865
000070 86 18 e4 ba 22 71 d5 bb 50 f6 a8 bc d9 1a 3c 3c
       -0.0017402328 -0.0065137306 -0.020625263 0.01148101
000080 f6 b7 cc bc ac 0a 0c 3d 17 9b 9c 3c 66 22 d1 3c
       -0.024990063 0.034189865 0.019116921 0.025529098
000090 ab c6 4c bc 9c a0 44 3c fe 66 02 bd 6c 01 36 3b
       -0.012498538 0.012001183 -0.031836502 0.0027771844
0000a0 56 e5 e9 bb 6e f1 6b 3c b1 ff d4 bc bc 4d 68 3c
       -0.0071379347 0.014400823 -0.02600083 0.01417869
0000b0 4a 0e a4 bc 06 bd e9 3c 46 6b ef bc a6 5a 28 bd
       -0.020026345 0.028532516 -0.029225957 -0.041102074
0000c0 2f 40 28 3b 44 77 cd bc ad 6c e0 ba dd 23 27 3d
       0.0025673022 -0.025081284 -0.0017122232 0.040805686
0000d0 75 1b 0a bd 5d 60 f9 3c 5e a8 0a bd 2c 48 d2 3c
       -0.03371759 0.030441457 -0.033851974 0.02566918
0000e0 99 d0 07 bd 8b 18 99 3c fa 08 16 3d 2c 74 24 3d
       -0.03315792 0.01868846 0.036629654 0.040149853
0000f0 8d 9a 21 bc 06 76 d1 3c 8d 04 f8 bc 76 e0 e7 3c
       -0.009863508 0.025568973 -0.030275607 0.028305274

batch_norm3.weight f4 [64]
000000 a0 5b 81 3f 13 21 7d 3f f6 8f 75 3f 81 e7 6b 3f
       1.0106087 0.9887859 0.9592279 0.9215012
000010 e0 b6 7e 3f 95 1e 83 3f b0 33 6f 3f 81 a9 80 3f
       0.99497795 1.0243708 0.93438244 1.0051728
000020 1c 2e 68 3f 4c e7 47 3f 64 55 83 3f d3 13 6f 3f
       0.9069536 0.78087306 1.0260434 0.93389624
000030 9d 6b 81 3f 97 02 86 3f 93 3b 67 3f 67 76 86 3f
       1.0110966 1.046954 0.9032528 1.0504884
000040 68 b0 6f 3f 5a 38 83 3f 43 a4 81 3f 4f c7 70 3f
       0.9362855 1.0251572 1.0128254 0.9405412
000050 02 2e 8f 3f 0d e0 6f 3f f8 bc 83 3f 6a 81 71 3f
       1.1185915 0.9370125 1.0292044 0.94338095
000060 67 93 74 3f ec f8 82 3f fe 0c 7b 3f da ce 74 3f
       0.9553742 1.0232215 0.980667 0.9562813
000070 d8 cf 8b 3f 7c 55 5f 3f 19 27 70 3f 34 47 67 3f
       1.0922804 0.87239814 0.9380966 0.9034302
000080 a3 59 78 3f b4 38 5f 3f f8 b3 7f 3f 10 5a 89 3f
       0.97011775 0.871959 0.99883986 1.073061
000090 d7 90 74 3f 9c e7 56 3f 5f 5b 81 3f f7 8c 70 3f
       0.9553351 0.8394716 1.0106009 0.93965095
0000a0 a3 4b 79 3f 43 31 89 3f d1 21 75 3f a4 1a 82 3f
       0.9738104 1.0718158 0.95754725 1.016438
0000b0 1a 42 67 3f 90 cf 73 3f ff ca 79 3f 9f 8f 83 3f
       0.9033524 0.9523859 0.9757537 1.0278205
0000c0 02 6e 6e 3f 3c 8b 7d 3f 35 4e 7d 3f cc 09 79 3f
       0.9313661 0.9904058 0.9894746 0.97280574
0000d0 88 1f 72 3f 8c ac 7b 3f 96 cd 85 3f 14 0a 80 3f
       0.9457936 0.9831016 1.0453365 1.0003076
0000e0 5b a0 70 3f fd d6 74 3f 76 38 82 3f ab 5f 63 3f
       0.93994683 0.95640546 1.017348 0.8881785
0000f0 7f 4b 7b 3f a5 28 6c 3f 9a b0 71 3f 4a 65 73 3f
       0.9816207 0.9224952 0.944101 0.9507643

batch_norm3.bias f4 [64]
000000 dd ce 4d be e8 27 83 be ed 0d 72 be d4 02 8b be
       -0.20098443 -0.25616384 -0.23638125 -0.27150595
000010 6b 02 91 be 76 8b fd bd 81 b2 6c be 86 86 8d be
       -0.28322157 -0.12380116 -0.23114969 -0.27641696
000020 cf a5 65 be b9 d3 2f be fb 38 4a be 27 e0 bf be
       -0.22426532 -0.1717061 -0.19748299 -0.37475702
000030 d5 42 c7 bd b8 08 5a be 6c d4 6c be e1 2b 3e be
       -0.09729544 -0.21292388 -0.23127908 -0.18571426
000040 5b 22 50 be 88 a4 34 be 96 fa 50 be 89 24 a4 be
       -0.20325606 -0.17640889 -0.20408091 -0.32059124
000050 7e 03 bf be ca 68 35 be e0 ac 49 be 8e 8d 83 be
       -0.37307352 -0.17715755 -0.19694853 -0.25693935
000060 80 2c b0 be 73 25 2f be 39 fc d4 bd 62 01 3d be
       -0.3440895 -0.1710413 -0.1039967 -0.18457559
000070 5e cf 89 be c8 66 97 be e0 00 18 be 2e bf 32 be
       -0.2691602 -0.29570603 -0.14844084 -0.17455742
000080 54 8d 38 be 13 95 40 be b4 90 27 be 7c cd 9c be
       -0.18022662 -0.18806867 -0.16363794 -0.30625522
000090 36 91 92 be 04 ea 90 be 3c d0 50 be 9d 34 c5 bd
       -0.28626412 -0.2830354 -0.20391935 -0.09629176
0000a0 a5 a0 41 be ed cd 30 be 91 95 8c be e0 6d 56 be
       -0.18908937 -0.17266054 -0.2745786 -0.20940351
0000b0 c5 75 54 be 80 b1 73 be df 56 4b be 69 ac 8a be
       -0.2074805 -0.2379818 -0.19857357 -0.27084664
0000c0 45 b5 8b be ad f9 91 be e8 61 97 be 6d 42 12 be
       -0.27286735 -0.285108 -0.29566884 -0.14283152
0000d0 2c 1f 1c be 14 54 6f be e7 99 05 be ac 2e cf bd
       -0.15246266 -0.23371917 -0.1304699 -0.10116324
0000e0 8d 97 7b be 1a bf 53 be 95 3e c4 be 78 5a 81 be
       -0.24569531 -0.20678368 -0.38328996 -0.25264335
0000f0 72 a7 30 be 6f ca 96 be 86 9f a3 be 27 b0 8c be
       -0.17251375 -0.2945132 -0.31957644 -0.27478144

batch_norm3.running_mean f4 [64]
000000 bd 9e 55 c0 d8 42 04 3f a3 9b 99 bf 2d 0f 16 c0
       -3.3378136 0.51664495 -1.2000622 -2.3446763
000010 97 b8 92 bf 28 37 ad bf ca 95 73 be fb d4 de 3f
       -1.1462582 -1.3532457 -0.23787609 1.7408746
000020 34 3a c5 bf d2 c1 fd 3f 90 b4 85 3f 5d fd b2 bf
       -1.5408387 1.9824774 1.0445728 -1.398357
000030 80 43 50 c0 44 d5 c8 bf e5 1f 5f be 0c 8a 00 c0
       -3.2541199 -1.5690084 -0.2178951 -2.0084257
000040 1f 72 74 bf 71 db e3 bf 4e 84 7c 3f 0e 9c 7c 3e
       -0.95486635 -1.7801343 0.9863938 0.24668905
000050 34 ac e7 3f a6 e4 df bf f5 35 47 c0 e6 bd 1c bf
       1.8099427 -1.7491653 -3.1126683 -0.6122726
000060 44 f1 b8 be b5 57 59 c0 18 67 6d be 42 28 3f c0
       -0.3612157 -3.3959782 -0.23183858 -2.9868321
000070 c1 be d0 3e f4 75 4e c0 f9 ac 37 c0 b1 c5 1b bf
       0.40770534 -3.2259493 -2.8699324 -0.6084853
000080 34 b0 28 3e 08 e0 07 be 89 91 69 bf 31 cc 06 bf
       0.16473466 -0.13269055 -0.91237694 -0.5265532
000090 4f d7 15 40 54 fe 46 3e 69 e8 31 bf 04 a3 02 3e
       2.3412664 0.19432956 -0.69495255 0.12757498
0000a0 96 c3 84 bf 7d 89 c5 bf 7e 78 75 be 32 08 f6 3e
       -1.0372188 -1.5432583 -0.23971745 0.48053128
0000b0 7c 7d 27 be 4f f5 46 bf d2 72 cc bf b0 0e 80 3e
       -0.16356462 -0.7771806 -1.597254 0.25011206
0000c0 ac 03 14 be 73 e1 4c 3f d2 9d 88 be a4 88 f6 bf
       -0.14454526 0.8003151 -0.26682907 -1.926045
0000d0 6d 03 4a c0 88 64 7f 3f dd 30 c2 bf 50 95 c7 bf
       -3.156459 0.99762774 -1.5171162 -1.5592442
0000e0 bd 8d c9 bf 70 25 15 40 ff 2e 1d bf 69 02 08 3f
       -1.574638 2.33041 -0.61399835 0.5312868
0000f0 d4 f6 0b 3e d9 9f 65 3f 27 0e 36 bf db 56 85 3e
       0.13668376 0.89697033 -0.71115345 0.26042828

batch_norm3.running_var f4 [64]
000000 6a 78 cc 40 b3 be 7e 40 36 61 35 40 ec 42 a6 40
       6.389699 3.9803894 2.8340583 5.195669
000010 25 f5 87 40 5a 3f 4e 40 d1 70 50 40 07 b5 ab 40
       4.248675 3.2226167 3.2568858 5.365848
000020 f4 a3 a5 40 18 49 ce 40 12 c6 3a 40 5e 39 83 40
       5.176264 6.4464226 2.9183393 4.100753
000030 6f 5c a6 40 b8 c8 4f 40 32 94 f6 3f df ee 31 40
       5.1987834 3.246626 1.9263976 2.7802045
000040 6c e3 90 40 72 6b 1e 40 e4 6f 5f 40 e3 ec 88 40
       4.5277615 2.475308 3.4912043 4.278917
000050 66 5b b4 40 fd 7b 9a 40 21 bb 68 40 22 e2 58 40
       5.636157 4.8276353 3.6364214 3.388802
000060 58 5c 9c 40 67 08 9b 40 cc 68 41 40 fe e7 8a 40
       4.8862724 4.8447757 3.0220213 4.3408194
000070 d5 87 35 40 9d 18 98 40 44 ad b2 40 e5 3f a0 40
       2.8364155 4.7530046 5.5836506 5.0077996
000080 2b c7 0c 40 93 10 3d 40 14 78 8c 40 95 f0 50 40
       2.1996562 2.9541366 4.389658 3.264684
000090 f8 df a9 40 32 be 16 40 a4 6d 09 40 f0 85 63 40
       5.30859 2.3553586 2.147317 3.55505
0000a0 e6 63 55 40 de 28 79 40 44 79 8f 40 5e f8 2e 40
       3.3342223 3.8931193 4.483553 2.7339091
0000b0 1b 1d b2 40 2e 7e c3 3f 5a 76 70 40 e8 a0 8e 40
       5.566053 1.5272882 3.7572236 4.457142
0000c0 02 1c 62 40 25 97 68 40 c3 45 73 40 cb b8 80 40
       3.5329595 3.6342251 3.801133 4.0225577
0000d0 75 56 8e 40 f7 18 56 40 0b 0a 4b 40 32 a0 8b 40
       4.448054 3.3452737 3.172488 4.363305
0000e0 a5 40 70 40 0c 08 b8 40 3c 56 94 40 6d c8 95 40
       3.7539456 5.7509823 4.6355267 4.680716
0000f0 53 c8 36 40 a8 18 08 40 a1 84 a7 40 ab c8 de 3f
       2.8559768 2.126505 5.23494 1.7404989

conv4.weight f4 [128, 64, 3, 3]
000000 4f b3 0d 3e 68 df b5 3d 54 6d ce 3d c9 05 0f 3a
       0.13837932 0.08880502 0.100794464 0.0005455879
000010 3d a7 db 3d 5e 42 e1 3d 49 4e 4d 3e 3a b4 68 3e
       0.107252575 0.10998987 0.20049395 0.22725001
000020 8d d7 74 3d 62 12 94 bd 66 89 fa 3d 05 d5 31 bd
       0.059775878 -0.07230069 0.12233238 -0.043416042
000030 09 1c f8 bc 69 a3 b5 bc c5 e2 10 bd 84 60 ea bc
       -0.030286806 -0.022172647 -0.035372514 -0.028610475
000040 c8 0d 94 3d 38 4d f1 3c 4c c2 0f 3e ca db 80 3d
       0.07229191 0.029455766 0.14038962 0.062919214
000050 b6 62 38 3e eb 51 92 3c 01 5d 97 3d d5 85 32 3e
       0.18006405 0.017861327 0.07390786 0.17433865
000060 39 55 0b 3d 97 a3 0f 3e 93 25 0f 3d 3e 9e 98 3b
       0.03401682 0.14027248 0.034947943 0.004657536
000070 e8 06 cf bc b8 d3 0d bd d1 f8 13 bd 82 97 cc bd
       -0.025271848 -0.03462574 -0.03612596 -0.09989835
000080 23 3a 09 bd bd 0f c6 3d db 91 0a 3e 79 7d a4 bc
       -0.03350271 0.096709706 0.13532202 -0.020079361
000090 40 28 42 3d d6 75 3c 3d 2d 6d 78 3c ea 38 53 bd
       0.047401667 0.046010815 0.015162748 -0.05156795
0000a0 2f 07 5c bd 8e 1a 05 be 6f e3 a3 bd 08 b3 c0 ba
       -0.05371779 -0.12998411 -0.08002364 -0.0014701793
0000b0 4c d1 e4 bd 00 bf a2 bd 19 c3 3e be 2a 4e 4a be
       -0.11172733 -0.079465866 -0.18629111 -0.1975638
0000c0 32 93 8b bd 92 71 5a bd 0f 09 41 be 92 c0 11 bd
       -0.06815185 -0.053330965 -0.18851112 -0.03558404
0000d0 5b d1 29 be 24 10 0a be 41 f9 0e be 7d 34 7f 3a
       -0.16583769 -0.1348272 -0.1396227 0.00097352994
0000e0 35 65 da 3c 71 3e 16 bd aa 7f 8c 3d 3a a3 d1 3c
       0.026659587 -0.036680643 0.068602875 0.025590528
0000f0 2e fc 06 be 9e da b1 bd 7e 1f 2b be 38 1a 08 3e
       -0.13182136 -0.08684276 -0.16711232 0.13291252
000100 46 9d a8 3d 3d 1d 81 3d 6c d1 ee 3a 18 ff bf 3d
       0.082331225 0.06304405 0.0018220372 0.09374827
000110 51 55 aa bd 43 62 a9 3b b3 93 7e 3c 52 4c ee 3d
       -0.08317054 0.0051691844 0.015538144 0.11635651
000120 4b 34 43 3b 48 e3 17 bd 84 21 2d be a7 e0 1c be
       0.0029785808 -0.037081987 -0.16907316 -0.15320073
000130 2d f4 56 3c 5e fb 17 bd 81 4d e2 3c a8 a1 91 3d
       0.0131197395 -0.037104957 0.027624847 0.071109116
000140 f4 5b 39 bd 5f ce 49 3b aa c4 22 3d be 9f 1b bd
       -0.04525371 0.0030793173 0.039738335 -0.03799414
000150 21 16 a7 bd 2f ce 25 bd 27 ec 5b 3d 63 44 a4 bb
       -0.08158518 -0.040479835 0.05369201 -0.005013035
000160 9e 79 a4 bd 9f 89 75 bd 2f da 84 bd 64 a1 55 bc
       -0.08031009 -0.0599457 -0.06486928 -0.013038967
000170 de 2f 41 bc a0 95 6e 3d c9 7e 56 3d a8 92 0c 3d
       -0.011791198 0.058248162 0.052367005 0.03431955
000180 6c cc 09 3e 0f 93 1c 3e cc 69 3c 3d 2b 6c 39 bd
       0.13456887 0.15290473 0.045999333 -0.045269173
000190 cc e7 6c be 9e 5c 29 bd 53 e6 da bd 9d cd 08 be
       -0.23135298 -0.041348092 -0.10688462 -0.13359685
0001a0 fd 5b 66 bd ff 5f 1a bb 94 8d d8 bd 39 a6 28 3c
       -0.05624007 -0.0023555753 -0.10573879 0.010293537
0001b0 b7 64 10 3d 00 fc 71 bd f8 7a 95 bc c2 28 d1 bc
       0.0352523 -0.059078217 -0.018247113 -0.02553213
0001c0 42 29 d0 3d c2 38 c6 3c 6c 9b 91 3d fc ba ab 3d
       0.10164119 0.024196986 0.071097225 0.08385274
0001d0 ca d6 94 3d ea ee cf 3c b5 3b b5 bd d8 0a 24 be
       0.0726753 0.025382478 -0.08849279 -0.16019762
0001e0 30 c7 0a bd f8 e8 96 bc b9 95 0c be aa 09 60 3d
       -0.033881366 -0.018421635 -0.1372899 0.054696716
0001f0 33 7c 6f bd 7f 73 52 bd 4a 89 1d 3d eb 75 0b 3c
       -0.058468055 -0.051379677 0.038461007 0.008512001
000200 04 38 85 3d 9c 97 6b 3c b8 2b 28 bc 46 e1 d2 bd
       0.06504825 0.014379408 -0.01026433 -0.10296874
000210 30 cd 96 bd 95 1c 2a bd 97 c4 19 bb 6f 52 01 3e
       -0.07363355 -0.041531164 -0.0023463124 0.12629102
000220 28 71 d9 bb c5 16 12 bc 52 fd 33 3e 26 0c 57 bc
       -0.0066358037 -0.0089165615 0.17577103 -0.013125455
000230 0c fd 13 be 99 67 16 bd 51 76 e5 bd dd c9 c2 bd
       -0.14451998 -0.036719892 -0.11204208 -0.095111586
000240 8a a4 d5 bd ca 3a 82 bd 70 dd e6 bd 00 70 4b be
       -0.10431774 -0.063588694 -0.112727046 -0.19866943
000250 92 dc d6 bd 55 e4 4f 3a f9 ec b5 be b7 04 b2 bd
       -0.10491289 0.00079304475 -0.35532358 -0.086923055
000260 9c fe 24 be 61 ff 70 be 36 f9 5c be f6 f6 83 bd
       -0.16112751 -0.2353492 -0.21579441 -0.064435884
000270 e9 08 cf bd 0e b8 fa bd 34 d5 dd bd 96 15 2f be
       -0.10109121 -0.12242137 -0.10831681 -0.17098078
000280 2d 4b 32 be 53 fc b4 bd 8e 95 3c 3d 1e 9e 25 bc
       -0.1741149 -0.088371895 0.046041064 -0.010108499
000290 16 3d 36 bd f0 b7 a7 bd cf 4a ef 3d f7 97 eb 3b
       -0.04449185 -0.0818938 0.116841905 0.0071897465
0002a0 ad ec 75 bd 41 04 a0 3d 2f 07 78 bd 17 d0 18 3d
       -0.060040165 0.07813311 -0.060553726 0.037307825
0002b0 03 68 1e bd 96 81 b3 3d d8 c6 61 3d 95 53 ab 3b
       -0.038673412 0.08764951 0.055121273 0.0052284696
0002c0 bb e0 9d 3c 3b 57 ed bd c6 99 9e 3c b4 3f 7c 3d
       0.019272199 -0.115889035 0.019360434 0.06158419
0002d0 14 f0 3f 3d b0 ec c8 3d d8 56 01 3e d9 5d 5a 3e
       0.046859816 0.098107696 0.12630785 0.21324863
0002e0 5a 9f 30 3b ef 16 bc 3d eb 29 ab 3d 6f 2a db 3d
       0.002695045 0.09184062 0.083576046 0.10701453
0002f0 fb 95 7a bd 2d 15 af bc 00 55 71 bd 46 2d de 3c
       -0.06117819 -0.021372402 -0.058918953 0.027121197
000300 b9 eb 01 bb fb ca 7b bd 77 ee 48 3d bd 75 31 3d
       -0.001982434 -0.061472874 0.049055543 0.043325175
000310 78 65 5a 3d 98 90 44 3d 72 01 c6 b9 fa 8b 13 bc
       0.053319424 0.047989458 -0.0003776658 -0.009005541
000320 e1 68 20 bc cd bb 96 bc d7 2e 3d bc 8f 0d 07 3d
       -0.00979063 -0.018400097 -0.011546812 0.032971915
000330 5f b0 6a 3c 42 dc 36 bd 63 b1 8e bd 72 91 79 3d
       0.014324277 -0.044643648 -0.069674276 0.060929723
000340 02 ad 48 3d a9 11 28 3d 87 b4 c2 3b d5 4b 02 bc
       0.048993118 0.041032467 0.0059419307 -0.00795265
000350 b5 4d 2b bd a8 ee d3 bc 7d 86 18 bd df 48 62 3d
       -0.041822154 -0.025870636 -0.037237633 0.055245277
000360 f8 a3 e7 bc a8 ee 00 bd 17 24 19 3e d6 a9 c8 bd
       -0.028276429 -0.0314776 0.14955173 -0.09798019
000370 a8 0d d9 3c f0 fc 8c 3d e4 05 04 bd 75 39 cd bd
       0.02649577 0.068841815 -0.03223218 -0.10020725
000380 b9 e5 3e 3d ed 35 35 3d a7 40 b6 3c eb fb 09 bd
       0.0466058 0.04424088 0.022247626 -0.033687513
000390 79 42 a2 bd 9f 85 62 bd 2f c8 ef 3c cd 9b 96 bc
       -0.07922835 -0.055303212 0.02927026 -0.018384838
0003a0 7a 13 09 bd 12 ce 47 bd 4b 16 00 be 2e 3a 71 bd
       -0.03346584 -0.04878051 -0.12508504 -0.058893375
0003b0 d7 e3 70 3c ae 83 b0 bc 80 d9 e0 3c bf 61 a5 bd
       0.014702759 -0.021547165 0.027447462 -0.08075284
0003c0 a2 1f 00 be fc c3 1a bd de de 33 bd dd 4e e4 bc
       -0.12512067 -0.03778456 -0.043913715 -0.027869636
0003d0 0d 23 12 bc ef 09 e3 bd 8e e3 09 be 69 db f3 bd
       -0.00891949 -0.11085879 -0.13465711 -0.119070835
0003e0 eb 39 2d bd a3 e6 cf bd 5a 2d 31 be 39 b2 8d bd
       -0.042291563 -0.10151412 -0.17302456 -0.06918759
0003f0 26 87 c8 bd df d3 98 bd c5 79 66 3d 68 2c 78 bb
       -0.097914025 -0.07462286 0.056268472 -0.0037868265
